…
           6     0.9522    0.9562    0.9542       958
           7     0.9580    0.9309    0.9443      1028
           8     0.9333    0.9045    0.9187       974
           9     0.9188    0.9415    0.9300      1009
    accuracy                         0.9456     10000
   macro avg     0.9453    0.9448    0.9449     10000
weighted avg     0.9457    0.9456    0.9455     10000
Model: "sequential"
_________________________________________________________________
 Layer (type)                Output Shape              Param #
=================================================================
 conv2d (Conv2D)             (None, 26, 26, 15)        150

 max_pooling2d (MaxPooling2  (None, 26, 26, 15)        0
 D)

 conv2d_1 (Conv2D)           (None, 24, 24, 30)        4080

 max_pooling2d_1 (MaxPoolin  (None, 24, 24, 30)        0
 g2D)

 flatten (Flatten)           (None, 17280)             0

 dense (Dense)               (None, 100)               1728100

 dense_1 (Dense)             (None, 10)                1010

=================================================================
Total params: 1733340 (6.61 MB)
Trainable params: 1733340 (6.61 MB)
Non-trainable params: 0 (0.00 Byte)
_________________________________________________________________