…
           6     0.9373    0.9520    0.9446       958
           7     0.9372    0.9144    0.9257      1028
           8     0.9041    0.9004    0.9023       974
           9     0.9078    0.8979    0.9028      1009
    accuracy                         0.9262     10000
   macro avg     0.9253    0.9253    0.9252     10000
weighted avg     0.9260    0.9262    0.9260     10000
Model: "sequential"
_________________________________________________________________
 Layer (type)                Output Shape              Param #
=================================================================
 conv2d (Conv2D)             (None, 26, 26, 15)        150

 max_pooling2d (MaxPooling2  (None, 26, 26, 15)        0
 D)

 conv2d_1 (Conv2D)           (None, 24, 24, 30)        4080

 max_pooling2d_1 (MaxPoolin  (None, 24, 24, 30)        0
 g2D)

 conv2d_2 (Conv2D)           (None, 22, 22, 60)        16260

 max_pooling2d_2 (MaxPoolin  (None, 22, 22, 60)        0
 g2D)

 flatten (Flatten)           (None, 29040)             0

 dense (Dense)               (None, 100)               2904100

 dense_1 (Dense)             (None, 10)                1010

=================================================================
Total params: 2925600 (11.16 MB)
Trainable params: 2925600 (11.16 MB)
Non-trainable params: 0 (0.00 Byte)
_________________________________________________________________