…
           6     0.9638    0.9729    0.9683       958
           7     0.9748    0.9426    0.9585      1028
           8     0.9381    0.9641    0.9509       974
           9     0.9301    0.9495    0.9397      1009
    accuracy                         0.9612     10000
   macro avg     0.9616    0.9607    0.9610     10000
weighted avg     0.9616    0.9612    0.9612     10000
Model: "sequential"
_________________________________________________________________
 Layer (type)                Output Shape              Param #
=================================================================
 conv2d (Conv2D)             (None, 26, 26, 10)        100

 max_pooling2d (MaxPooling2  (None, 26, 26, 10)        0
 D)

 conv2d_1 (Conv2D)           (None, 24, 24, 20)        1820

 max_pooling2d_1 (MaxPoolin  (None, 24, 24, 20)        0
 g2D)

 conv2d_2 (Conv2D)           (None, 22, 22, 40)        7240

 max_pooling2d_2 (MaxPoolin  (None, 22, 22, 40)        0
 g2D)

 flatten (Flatten)           (None, 19360)             0

 dense (Dense)               (None, 100)               1936100

 dense_1 (Dense)             (None, 10)                1010

=================================================================
Total params: 1946270 (7.42 MB)
Trainable params: 1946270 (7.42 MB)
Non-trainable params: 0 (0.00 Byte)
_________________________________________________________________