…
           6     0.9864    0.9843    0.9854       958
           7     0.9816    0.9844    0.9830      1028
           8     0.9835    0.9784    0.9810       974
           9     0.9850    0.9742    0.9796      1009
    accuracy                         0.9838     10000
   macro avg     0.9839    0.9837    0.9838     10000
weighted avg     0.9838    0.9838    0.9838     10000
Model: "sequential"
_________________________________________________________________
 Layer (type)                Output Shape              Param #
=================================================================
 conv2d (Conv2D)             (None, 26, 26, 15)        150

 dropout (Dropout)           (None, 26, 26, 15)        0

 max_pooling2d (MaxPooling2  (None, 26, 26, 15)        0
 D)

 conv2d_1 (Conv2D)           (None, 24, 24, 30)        4080

 dropout_1 (Dropout)         (None, 24, 24, 30)        0

 max_pooling2d_1 (MaxPoolin  (None, 24, 24, 30)        0
 g2D)

 conv2d_2 (Conv2D)           (None, 22, 22, 60)        16260

 dropout_2 (Dropout)         (None, 22, 22, 60)        0

 max_pooling2d_2 (MaxPoolin  (None, 22, 22, 60)        0
 g2D)

 flatten (Flatten)           (None, 29040)             0

 dense (Dense)               (None, 100)               2904100

 dense_1 (Dense)             (None, 10)                1010

=================================================================
Total params: 2925600 (11.16 MB)
Trainable params: 2925600 (11.16 MB)
Non-trainable params: 0 (0.00 Byte)
_________________________________________________________________